Assets/Models/AsteroidBreaker-663790.onnx (onnx, 369313 bytes, 15 tensors)

discrete_act_size_vector f4 [1, 3]
00000000: 0000 0040 0000 4040 0000 0040
2.0 3.0 2.0

network_body.observation_encoder.processors.0.normalizer.running_mean f4 [84]
00000000: 7747 703e 0000 0000 fe18 2a3f a20e 493f
00000010: 94be 7a3e 0000 0000 655c 323f cb89 513f
00000020: 3558 733e 0000 0000 aa41 353f 333a 543f
00000030: 2012 853e 0000 0000 4fb1 383f f939 583f
00000040: e56a 6d3e 0000 0000 3717 403f afd2 5d3f
00000050: 34d1 8a3e 0000 0000 de42 383f 5835 583f
00000060: 70bd 643e 0000 0000 239a 443f a101 613f
00000070: bc62 8d3e 0000 0000 31eb 373f e103 583f
00000080: 9ea8 633e 0000 0000 cad8 453f 21dd 613f
00000090: 5ee5 8a3e 0000 0000 b7b2 393f 1ce4 583f
000000a0: 4641 6a3e 0000 0000 25a8 443f 712e 613f
000000b0: 057a 873e 0000 0000 d4bc 3b3f f205 5a3f
000000c0: 47f4 763e 0000 0000 efc5 413f 0846 5f3f
000000d0: dd75 853e 0000 0000 7fed 3c3f afb1 5a3f
000000e0: 46c4 853e 0000 0000 89d0 3c3f 833a 5c3f
000000f0: c874 843e 0000 0000 878b 3d3f a321 5b3f
00000100: a1c5 8e3e 0000 0000 f76a 383f 036c 593f
00000110: 61f2 843e 0000 0000 7563 3d3f d5f3 5a3f
00000120: 67aa 943e 0000 0000 3988 353f a159 573f
00000130: 82ff 873e 0000 0000 1aec 3b3f c951 5a3f
00000140: 66f1 993e 0000 0000 def0 323f 63c7 553f
0.23464762 0.0 0.66444385 0.7853795 0.24486762 0.0 0.6967223 0.8185088
0.23764117 0.0 0.7080332 0.82901305 0.2599039 0.0 0.7214555 0.8446346
0.23185308 0.0 0.75035423 0.866496 0.27112734 0.0 0.7197703 0.84456396
0.2233789 0.0 0.76797694 0.8789311 0.2761439 0.0 0.7184325 0.8438092
0.22232291 0.0 0.7728392 0.8822804 0.27128118 0.0 0.7253832 0.8472307
0.22876462 0.0 0.7681907 0.8796149 0.2646028 0.0 0.73335004 0.8516532
0.24116622 0.0 0.7569265 0.87216234 0.26066485 0.0 0.7379989 0.85427374
0.26126307 0.0 0.737557 0.8602678 0.25870347 0.0 0.74041027 0.855982
0.27885154 0.0 0.72038215 0.8493044 0.2596617 0.0 0.73979884 0.8552831
0.29036257 0.0 0.70910984 0.8412114 0.26562124 0.0 0.7340714 0.85281044
0.30066985 0.0 0.69898784 0.83507365

network_body.observation_encoder.processors.1.normalizer.running_mean f4 [5]
00000000: fb20 aa3d d7d2 643e 94e4 e53d 2cc8 12bd
00000010: 0a71 1f3d
0.08307072 0.22346054 0.112252384 -0.03583543 0.03892616

network_body._body_endoder.seq_layers.0.weight f4 [256, 89]
00000000: 89a3 c13d f061 093d caa1 4abd 513c 27be
00000010: c08c 5f3e 1d12 dc3d 1849 6cbe a475 6a3d
00000020: 8fa8 aebc b8a8 50bd 8d0f 9ebd 01ef 9e3e
00000030: 30c2 d23d da83 30be b7ba 893b cd7f 2dbe
00000040: 2d7f b13c da69 0d3d 3bcf 9a3c f71b 0d3d
00000050: 8ef3 6ebd b593 323c 7973 72be 3ae5 abbd
00000060: e7bb 3dbd b50d 6fbd 7e6d 0f3e 5b3a 7e3d
00000070: 8d37 eb3c 7756 853d 4b8b 203e 1a77 e7bd
00000080: 505e 4e3e e5b4 2f3e 8ae7 d9bd 0375 2dbd
00000090: 0098 8abc 028c 70bd 14c3 12bd 9d65 cf3d
000000a0: 00d1 14bc 2ec4 b03d 426e 9a3a 53ab 30bd
000000b0: 7d4f 013e fad0 c33d ce3d a53d 0a9d f13d
000000c0: 25ec 583d 73b1 b8bb b6a4 053e d266 61be
000000d0: b35f 4abd 7a9c 303c d8fc 013e c1e1 b93c
000000e0: 1318 133e a3ca 85bd 405f 09bd 3eb0 3dbe
000000f0: 492f 12bd 25ad 423e 8d6e 673d dc1c 773b
00000100: e34c 803e 8a8c 37bd 7842 343c f58b fbbc
00000110: 5df9 d93c 314f a0bd 832d b83d 4a48 873d
00000120: 69b9 a7bd 60ff 45bc 5541 f3bc 2e2e a6bb
00000130: 7e79 83bc a89a cb3c 32ed 4e3c 6cd0 2ebe
00000140: a5ee 81bc 9fe7 9e3c 823a e13d 961f 16be
00000150: cdee 613e 2621 2dbe a3a5 6c3e a033 643d
00000160: f854 26be 00c1 21be f01e b93d e0ee 883d
00000170: 4cb4 043e 44f4 ac3d 6d17 4cbd 7a2c e1ba
00000180: b2b4 ba3d 4b39 b43d 38b0 133e f2b8 c4bd
00000190: addb debd 22c3 07bc 8121 5f3d 561c 27be
000001a0: 3b07 093a 2819 2e3e f8c5 8a3e a010 c2bd
000001b0: 0a2a 36be 3a5a 97bc 5f36 87bd f70a 98be
000001c0: d134 04be ed29 b43d 6d11 553c a18c 383c
000001d0: b865 0cbe dbd1 c9bd 05e9 eebd 6250 863d
000001e0: f1c0 90bd ddd2 fdbd 5419 13bc 4678 21be
000001f0: 854f 90bd c266 14be d4cf 9c3d bf14 933d
00000200: dc79 80bc 3fbe 06bd cc61 81be b3b8 c1bd
00000210: 2d93 c239 5905 2b3e 66d8 053e ac2b 843d
00000220: 1c94 423e ee88 ffbc a86e 6a3b edf4 b7bc
00000230: 8084 a0bd dea2 8d3d d03a b83c 400d 8bbd
00000240: ce58 44be 2163 4ebe b15a 8b3d 0820 44bd
00000250: 68ee 853d ba94 edbb 3ae3 2cbd c728 43be
00000260: 02e2 dc3d 9032 3bbd a34f d43d baff 77be
00000270: 3c9b 343b 2bb6 c63d e823 04be f6ef 4d3e
00000280: 5e7e 653e e690 143e bedf a43d 7b2a a6ba
00000290: 994f dc3d 5841 0ebe 2374 76bd 4daa f53d
000002a0: a2f6 4b3d 77d2 093e 196d 2abd 7755 57bc
000002b0: ed16 a83d 1503 19be 98bd 88bc ef23 9b3c
000002c0: 9e36 023e f6cf 523e 4f45 e7bd 66ad 00bd
000002d0: 86f6 d23d 4506 a33d be52 543e eff6 cfbd
000002e0: 6084 4d3e bd05 003e 4dd4 e53c c2cd 05bd
000002f0: 9053 7cbb 7793 b7bb cffa 2cbc 2aad a33d
00000300: 905d 103d fe34 973d 4c8e c3bd 2bb7 d63d
00000310: a470 1b3e d87b 693e c40d 423d f96b 19bc
00000320: 768b 113e 6b2a 2d3d 7322 39bd 6e75 913c
00000330: 34f6 fa3a a6e4 8cbc e99e 953d ac10 b83c
00000340: 329e 1f3e e78b 31be 3f73 333c 5bab 0c3e
00000350: 3aab 2cbe 1652 edbd a5c1 283d f9eb b3bc
00000360: e223 8cbd d581 69bc cdf7 d83d 8ac3 bc3d
00000370: 8ef7 92bc 7dcc adbc 6cf5 363e cb52 ccbc
00000380: 406b 043d e8cd e3bd 20fd 36be 77ec 613d
00000390: 042c a4bd b897 eabd cc3b 963d afd0 323d
000003a0: bd12 00be fbc3 2dbe 0f4c a13d 4047 d8bb
000003b0: 8c71 f6bc ddfe 093d 3832 fbbd b89d e9bd
000003c0: dcb8 dabb 8af4 bb3d f0c9 36be 70ae 80bd
000003d0: 5280 ce3c b11f a13d 5103 4aba b0a7 b23c
000003e0: 37cb e73d 8402 3d3e e229 5b3d be79 74bc
000003f0: 08f0 5ebe 3bc9 433d 1ad9 193e 6361 78bd
0.0945502 0.033540666 -0.0494707 -0.16331603 0.21831036 0.10745642 -0.23074758 0.057241097
-0.02132061 -0.050942153 -0.0771781 0.3104172 0.102909446 -0.17237797 0.0042031663 -0.16943283
0.021667087 0.034524776 0.018897643 0.034450497 -0.05833774 0.010899474 -0.23676862 -0.08393331
-0.046321776 -0.05836268 0.14006612 0.06206737 0.028713012 0.065106325 0.15678136 -0.11302014
0.20153165 0.1715885 -0.10639866 -0.04234792 -0.016918182 -0.05872727 -0.035830572 0.10126803
-0.009083033 0.08631168 0.0011782127 -0.043132138 0.12627979 0.095613435 0.08068429 0.11797531
0.05295958 -0.005636388 0.13051113 -0.22011879 -0.049407672 0.010779494 0.12694108 0.022690656
0.14364652 -0.065327905 -0.033538103 -0.18524262 -0.035689626 0.19011362 0.056501914 0.003770641
0.2505866 -0.044811763 0.0110021755 -0.030706385 0.026608163 -0.078276046 0.08993056 0.06605585
-0.08189661 -0.012084812 -0.029694239 -0.005071423 -0.016049143 0.02485402 0.012629794 -0.17071694
-0.015860865 0.019397555 0.109974876 -0.14660487 0.22063752 -0.16907176 0.2311006 0.055713296
-0.1624335 -0.1579628 0.09039104 0.06686187 0.12959403 0.084450275 -0.049827028 -0.0017179393
0.09116496 0.0879999 0.14422691 -0.09605588 -0.108817436 -0.008286269 0.05447531 -0.16319403
0.00052272127 0.17001784 0.27104163 -0.09475827 -0.17789474 -0.01847564 -0.06602167 -0.29695866
-0.12910773 0.08797059 0.013004643 0.011263997 -0.13710678 -0.0985448 -0.11665539 0.065583006
-0.07068051 -0.123937346 -0.008978207 -0.15768537 -0.07046417 -0.14492324 0.076568276 0.071816914
-0.015683107 -0.032896277 -0.25269926 -0.09459057 0.00037112218 0.16701259 0.1307083 0.06453642
0.19001812 -0.031193223 0.0035771523 -0.022455657 -0.07837772 0.0691583 0.022488981 -0.067896366
-0.19174501 -0.20155002 0.068044074 -0.04788211 0.06539613 -0.0072503956 -0.042208888 -0.19058524
0.10785295 -0.045702517 0.10366752 -0.24218646 0.0027558347 0.097027145 -0.12904322 0.20111069
0.22411487 0.145084 0.08050488 -0.0012677455 0.107573695 -0.13892114 -0.06016935 0.11995373
0.049795754 0.13459192 -0.04160795 -0.013142935 0.08207498 -0.14942582 -0.016691968 0.018938033
0.12716147 0.20587143 -0.112925164 -0.031415366 0.10300927 0.0796018 0.20734689 -0.10154521
0.20070028 0.12502189 0.028055334 -0.03266693 -0.0038501956 -0.005602296 -0.010557844 0.07992013
0.03524548 0.07383154 -0.09548625 0.10484155 0.15179688 0.22801149 0.04737641 -0.009364122
0.14213356 0.04227678 -0.04519887 0.01775619 0.001914686 -0.017198872 0.073057 0.022468887
0.1558769 -0.17338525 0.01095277 0.13737242 -0.16862193 -0.11587922 0.0412003 -0.021963106
-0.068427816 -0.014252146 0.10594139 0.092169836 -0.017940309 -0.021215672 0.17867059 -0.024941823
0.032328844 -0.11123258 -0.17869997 0.05515715 -0.08016208 -0.11454719 0.07335624 0.043656047
-0.12507148 -0.16969292 0.07875835 -0.0066002905 -0.03008344 0.033690322 -0.12265438 -0.114070356
-0.006674869 0.091775015 -0.1785047 -0.06283271 0.025207672 0.07867373 -0.00077061827 0.021808475
0.11318057 0.18457991 0.05350674 -0.014921604 -0.21771252 0.04779933 0.15024224 -0.06063975

network_body._body_endoder.seq_layers.0.bias f4 [256]
00000000: 494b f03b cc47 303c 38fe 3cbc f191 4c3c
00000010: 6631 593c 117d 7bbc c388 3f3c d668 50ba
00000020: ce32 783c 5348 aeba 6b18 c13c 49cc 783c
00000030: 4e4d 033c 053d 8d3c 9a08 a33b b390 d63b
00000040: f8a5 0c3c a331 1cbb fc3b ea3b ce8e 8cbb
00000050: abe5 593b 0153 5b3c 2ca9 4cbc e966 1bbb
00000060: 7100 32bc d44d 0a3c 4d8b 1d3c f18e 463a
00000070: 4c44 833c 0547 8b3c 21a9 99bb d8d2 fb3b
00000080: d73a d3bb d36c eabb 9f89 513b b453 e53b
00000090: 4a1c 3c3c e537 813c 4564 783c 1225 9fbc
000000a0: 082b 083d df84 37bc 99b6 593c 5512 6abc
000000b0: dc94 83b9 cd3d 033c 807d 863c 8350 2c3c
000000c0: 035d db3c 2ce7 9b3c 78f0 5f3c 554d e43c
000000d0: 0db3 4d3c b214 663c a58d be3c be0b c53b
000000e0: 86eb 0a3c 0623 853c f41b ccbc d115 5cbb
000000f0: acbb d0bc 7131 2b3c 1789 a53c 4ddd b73a
00000100: 4e41 78bc aca4 b2bc 2286 103a f9f2 893c
00000110: 43ab 1c3c 1f79 ffbb 4b27 91bc 735e 0c3c
00000120: c13b e13b 4fc4 e33b 706e 84bc b33e 403c
00000130: 83a1 843b ef48 57bc f3f3 0b3c 68ee dfbc
00000140: 3a6f 3b3b 1e5a 1bbc 0bec 5c3c 0379 863b
00000150: c025 b73c 2efd 6c39 8d45 f53b 8668 823c
00000160: be43 26bc d217 613c 37a8 e83a 6f5d 1cbc
00000170: b1a3 a4ba 2c4f cabc 9e80 d7ba 6c52 4fbc
00000180: c58e c43c 3c23 543a 0fd8 423b 5fe4 903b
00000190: e101 6e3c 499c 0ebc 9168 9b3c 9e2f b23b
000001a0: 7064 b4bb e2e1 823b 91f1 853c 6b2f d93b
000001b0: 3c55 d238 ea94 ca3b 5521 893c b338 0e3b
000001c0: aab0 873c 82bb 703c 76ab 533c cfc3 0c3d
000001d0: 3a5d 3dba 062c fa3b 2f68 0a3c 461b 493c
000001e0: 55dd 363c 4955 e83b 91f8 d6bc 21b9 a3bc
000001f0: b1be 03bc eae7 fa3c 553b 3cbc 1602 c53c
00000200: a376 1f3c 0433 1fbc 764c 90ba 7dae 1a3d
00000210: 708b e437 4686 04bb 5b7a 123c 79ea db3c
00000220: 7b20 f5ba 035d ebbb 32fc c5bc eaf4 49bc
00000230: 6d75 cc3a b181 73bb 8b86 b13c f2aa 0b3b
00000240: 9c8a 6b3c 0131 243c 3a70 c23b 3914 633b
00000250: 951d 50bb 03bc 573b a142 963a db2c f43c
00000260: 2fbb 2cbc a7ab 183c ac70 19bc 7153 7f3c
00000270: 859b 7bbc b70b e23b 2b85 77bb 428c ad3b
00000280: b8fc 2239 3622 323b 43c3 b9bc 9768 d23c
00000290: 1b80 11bc 6c9d 113b 58f8 383c 125d 4d3c
000002a0: ab15 ce3c 7742 833c b29f f23a f4dd f2bc
000002b0: 77d2 0e3c e6d2 c83b a327 cdbb 5ffd 253b
000002c0: 4de8 983c 77bb 313c 9ff5 b33c b0fc e93c
000002d0: 534f 8cbc 4811 cb3b 24dd 0e3b 21cb fc3b
000002e0: bfaf 193d 18fd 9d3c 934a 3abb ee6b b53b
000002f0: 494b 8d3c b493 9b3c f8ad 55bb 3e14 3fbc
00000300: 4912 073c d8d4 643c 771f 133d 30d5 81b7
00000310: 2104 1dbc 6a8a d53c 29cd 363c 22d5 9aba
00000320: 4618 273c 082c 62bc 760e 843c d4d9 483c
00000330: 9741 423c 66fd dd3c 10b2 893c 0923 673c
00000340: cc6b bf3c b55c 663c 4d25 853c 44bc 153d
00000350: b118 1d3c c102 e0bb e66e 633c e1c9 883b
00000360: 868d 513a f517 413c 6b70 a43c f1b0 073c
00000370: ec24 c93b cf61 343c fc2c 56ba 7418 cd3c
00000380: 369a 293c 9b51 143c 1414 f23b ca74 233c
00000390: 2611 223c 25e3 a13c f2dd a03b c4e4 6bbc
000003a0: 39b9 353a d3e7 ab3b dd8d d9bb 17fe 083d
000003b0: 9149 8e3c 5f4e c53b 7976 cdbb 2394 893c
000003c0: 71dc 20bc f37f 75bb 5af4 d83c 5318 013c
000003d0: a7e7 33bc 1b60 edba 8156 debb 4a02 18bb
000003e0: 413e 183b 96c3 35bc 4558 e6bb de47 5cbc
000003f0: ed8e 163d 142d 09bc 250d 153c 0712 fc3b
0.0073331934 0.010759305 -0.01153522 0.012485967 0.013256406 -0.015349642 0.011690321 -0.0007950192
0.0151488315 -0.0013296701 0.023571214 0.015185424 0.008014036 0.01724101 0.0049753906 0.006548011
0.008584492 -0.0023833297 0.007148264 -0.0042894846 0.0033248465 0.013386489 -0.012491506 -0.0023712462
-0.010864363 0.008441407 0.009615731 0.00075744005 0.016023777 0.017001638 -0.004689351 0.0076850466
-0.0064462232 -0.007154086 0.0031972898 0.0069985036 0.011481354 0.015773723 0.015160625 -0.019426856
0.033244163 -0.0112011125 0.013288164 -0.014286597 -0.00025097176 0.00801034 0.016417265 0.010517242
0.02677775 0.01903113 0.013668172 0.027868906 0.012554896 0.01404302 0.0232609 0.0060133627
0.008479005 0.016252052 -0.024915673 -0.003358234 -0.025480114 0.0104487995 0.020206971 0.0014027745
-0.015152289 -0.021807037 0.00055131514 0.016839491 0.009562316 -0.007796421 -0.017718932 0.00856744
0.0068735783 0.006950892 -0.016165942 0.011733699 0.004047574 -0.013139947 0.008542049 -0.02733536
0.0028600232 -0.009481935 0.013484011 0.004103781 0.022356868 0.0002260103 0.0074850977 0.015918981
-0.010147987 0.013738589 0.0017750327 -0.009543761 -0.0012560991 -0.024695955 -0.0016441529 -0.012653928
0.023993859 0.00080924085 0.0029730832 0.004421755 0.014526815 -0.0087042535 0.01897076 0.0054378053
-0.005505137 0.0039942125 0.01635054 0.006627967 0.000100294565 0.0061823027 0.016739527 0.0021701276
0.016563732 0.014693143 0.012919297 0.034366425 -0.00072236697 0.0076346425 0.008447691 0.012274569
0.011161168 0.007090245 -0.026241573 -0.019985737 -0.00804107 0.030628163 -0.011488755 0.024048846
0.009732875 -0.009716753 -0.0011009115 0.03776406 2.7244649e-05 -0.0020221635 0.008940305 0.026845204
-0.0018701697 -0.0071827187 -0.024168108 -0.0123264585 0.001559896 -0.003715616 0.0216706 0.0021311608
0.014376309 0.010021449 0.0059337886 0.0034649505 -0.0031755914 0.003291846 0.0011463949 0.029806545
-0.010542675 0.009318269 -0.009365242 0.015583859 -0.015356903 0.006898369 -0.0037768583 0.005296261
0.00015543669 0.0027181036 -0.022676116 0.025684638 -0.00888064 0.0022219075 0.0112896785 0.012534397
0.025156816 0.016022904 0.0018510728 -0.029646851 0.008717171 0.0061286567 -0.0062608286 0.0025328023
0.018665457 0.010847918 0.021967707 0.028562874 -0.017127668 0.0061971284 0.002179929 0.0077146445
0.03752112 0.019285724 -0.0028425797 0.005536548 0.017247813 0.018991329 -0.0032604914 -0.011662541
0.008244106 0.0139667615 0.03591868 -1.5477272e-05 -0.009583504 0.026066978 0.011157312 -0.0011812786
0.010198658 -0.013804443 0.016120177 0.0122589655 0.011856458 0.027098369 0.01680854 0.014107474
0.023366831 0.014060189 0.016253138 0.036556497 0.009588406 -0.006836266 0.013881421 0.0041744565
0.0007993806 0.011785497 0.020073136 0.008281932 0.0061384346 0.0110096475 -0.00081701553 0.025036074
0.010351708 0.009052659 0.0073876474 0.009976575 0.009891784 0.019761631 0.0049092704 -0.014397804
0.00069322024 0.0052461415 -0.006639226 0.033445444 0.017369064 0.0060213055 -0.0062702266 0.01679427
-0.009818182 -0.0037460297 0.026483703 0.0078793345 -0.010980523 -0.0018110307 -0.0067852144 -0.0023194724
0.0023230466 -0.011093995 -0.0070295655 -0.013444869 0.0367574 -0.008372564 0.009097372 0.0076925787

network_body._body_endoder.seq_layers.2.weight f4 [256, 256]
00000000: f276 a2bc 2685 7c3d a1b3 bbbc dd0d f8bd
00000010: 15ac debc ba72 fcbd 2efd 67bd 52d0 a23d
00000020: ef9e 44bd fde8 523d 734a 8dbd 3085 46bd
00000030: 41b2 893d 292c ee3d e97b 523d bce2 7bbd
00000040: 3c7a 543a 6331 153d 19bd 86bc 97c2 253d
00000050: 2443 08bd b99a 0b3c 2ea8 a8bd 932d b03c
00000060: cc82 013d d8c8 7bbd d445 f6b8 d463 ffbd
00000070: 3ac0 42bd 7d5d 5c3d 3162 a8bb 60e7 7639
00000080: 88bd bf3d fc38 16bd d82f 833d 04c6 2a3d
00000090: 7fbd fbba d89a 69bc 3db6 b03c 747c 32bd
000000a0: f454 3f3d 3846 e5bb c439 1bbd b181 c4bd
000000b0: fc13 833d 43b6 ae3d 4916 5e3d 11ab e3bc
000000c0: bedc 043e 2418 fb3d a397 a4bd 2af7 e73d
000000d0: 3ba1 3dbd ee55 fabd 880d 003e 7550 6f3d
000000e0: 0187 af3b 6cd9 57bd 5828 583d 3215 e63d
000000f0: ec7b fa3b e062 213e 44fe 5d3d f233 ce3b
00000100: 21d3 963d 6782 ac3d 2a27 cebd abe2 1a3b
00000110: 7ef5 253d fad1 2e3d 457f 99bd 5ac4 03bd
00000120: 6eb7 54bd c2f0 b63d f536 e0bb 272e ef3d
00000130: ba88 b13c b0dc 3c3d 46be dcbc 3e81 503d
00000140: 27e3 8abd f9e2 aebc 30f9 e9bb b5dc 183e
00000150: 4138 9a3c 68db a33d 59c0 d63d 2151 debc
00000160: 2953 ad3d 57e5 2c3e 61b0 a3bd 083e 1a3c
00000170: 64a2 0c3d 9ebb cfbd b6e6 d03d 29a9 21bd
00000180: 4063 973d 18c9 c53d 3435 87bc 6e30 133d
00000190: 70f5 033e 3539 c8bc b77c 6bbc b0b6 b6bd
000001a0: ef90 dd3d ef83 713c 9cd7 b93c f9dc ef3d
000001b0: 77fb fd3d 5712 923d ca81 23bd c262 4bbd
000001c0: 34a8 56bd 656d ddbc 0353 ce3c e4e1 25bd
000001d0: b198 843d 3f10 b8bd 121e e73c e62c 513d
000001e0: 2ed6 663d 59ce 7c3c 01ab f3bd 68f9 17be
000001f0: 170a fa3d 084c 3c3d 9195 ebbd 3ebf e13d
00000200: 6d81 0c3c 4ec4 b83c ace6 acbc 6e51 533b
00000210: fdfc 1b3d 5956 133e a8fc 4c3d b987 48bd
00000220: 8860 733d c2a8 513c b67d 77bd a963 8ebd
00000230: 54d7 c23d 7775 6c3d c9be c6bc 77be 83bc
00000240: c9cc f63c 9860 28bd 9397 833c 11fc 9e3d
00000250: 3134 02be 4fe0 62bd c617 c9bc c685 04bd
00000260: eec1 3abb 9901 953d 2f8b 163d d969 ecba
00000270: c77d ed3c ef54 bc3d 8ca2 d13c 3da5 d93d
00000280: 0e55 b33c b4d1 9fbc 7d76 43bd 8615 44bd
00000290: bf07 d3bd 1a76 9bbd c8b1 bebc b561 813b
000002a0: 9599 153d 5b67 01bd eb7a 003d 95e1 043c
000002b0: ee64 923b 36db 963d 2bcb b43b 197b 3b3c
000002c0: 05c1 223d 2c01 623d ccdd 943d ad13 8ebd
000002d0: 43c6 003a b2fe 5cbd de6d af3d 64a9 153d
000002e0: 113e 0d3d 49db 50bd c2f0 b3bc 87ad 8ebc
000002f0: 9205 82bd 1ddd 893c ac75 b73d 9224 b23d
00000300: ada3 dfbd 9a76 2abe 20a4 2fbd adb0 9cbc
00000310: be33 83bb 2e86 863d 81a3 fd3b b412 b0bc
00000320: 50e6 babc 39d4 7fbd a206 3abe a24c 65bd
00000330: a823 d73d a63a 3d3d 9d03 4c3d 4c06 38bc
00000340: 13e0 73bd cac5 9abd 7fa9 e33d 9e27 15bb
00000350: 970d 41bc acb0 483d ddc7 7e3c 49d3 c73b
00000360: ab60 d2bd d82c 303d fe63 80bd ae11 23bd
00000370: 1c16 6bba 6ca4 1a3e c7a3 65bd 6b8a 603c
00000380: f013 823c a3cc 88bd 0ae3 b23c 587b 9a3d
00000390: e65f 2a3c 2412 9bbd 4b75 99bd 4ebf 103d
000003a0: 257b 4b3d a4a9 bd3d 0f7f c83d abcc c53c
000003b0: 3718 2f3c 490e bf3d dcee a53d 4077 a83d
000003c0: 9b03 a33a 73a5 4abd a647 cdbb a598 7f3d
000003d0: 1508 883c 5e53 c03d 007d aabd 6271 233d
000003e0: 6050 b73b 4a7f 6ebd 4ed4 84bd 3cb5 d8bb
000003f0: 85a6 21be d1b8 50bd 1bce c73c 7a79 ebbb
-0.019832108 0.061650418 -0.022912802 -0.12112019 -0.027181664 -0.1232657 -0.056637935 0.0794989
-0.048003133 0.051491726 -0.06898966 -0.04846686 0.06723452 0.11629517 0.0513877 -0.061495528
0.00081053725 0.036424052 -0.01644759 0.04046878 -0.033267155 0.0085207755 -0.08235203 0.021506106
0.03161888 -0.061470836 -0.000117432006 -0.124702126 -0.047546603 0.053800095 -0.0051386585 0.00023546582
0.09362322 -0.03667544 0.0640561 0.04169275 -0.0019206255 -0.014258109 0.021571273 -0.04357572
0.046711877 -0.006996896 -0.037896886 -0.09595049 0.06400296 0.085308574 0.05422047 -0.027791532
0.12974831 0.12260464 -0.08036735 0.1132644 -0.04629634 -0.12223421 0.12505162 0.05842634
0.00535667 -0.052697584 0.05277285 0.112345114 0.007644167 0.15760374 0.054197565 0.0062928135
0.073644884 0.0842331 -0.10066064 0.002363364 0.040517323 0.042680718 -0.07494978 -0.032169677
-0.051932745 0.0893264 -0.006842489 0.11678725 0.021671642 0.0461089 -0.026946198 0.050904505
-0.06781607 -0.021348463 -0.007140301 0.14927943 0.018825652 0.08000833 0.10485906 -0.027138295
0.08463127 0.16884361 -0.07992626 0.009414203 0.034334555 -0.10143207 0.102002546 -0.039467964
0.07391977 0.09657496 -0.016504861 0.035934858 0.12886596 -0.024441341 -0.014372996 -0.089215636
0.108186595 0.014740928 0.022685818 0.11712069 0.12401479 0.07132404 -0.0399187 -0.04965473
-0.052406505 -0.027029702 0.025186067 -0.04049863 0.06474436 -0.08987474 0.02821258 0.05106821
0.0563566 0.0154300565 -0.11897851 -0.14841235 0.12208956 0.045970947 -0.11503137 0.11022805
0.008575779 0.022554543 -0.021106087 0.003224458 0.038083065 0.14388408 0.05004564 -0.04895756
0.05941823 0.012796583 -0.06042262 -0.069526024 0.09513727 0.05772921 -0.024260895 -0.016082032
0.030126946 -0.041107744 0.016063487 0.077629216 -0.12715222 -0.0553897 -0.024547469 -0.03235414
-0.0028496939 0.07275695 0.03675383 -0.0018036916 0.02899064 0.09195887 0.025590204 0.1062722
0.021891143 -0.019509174 -0.04772042 -0.04787209 -0.10304212 -0.075908855 -0.023278132 0.003948415
0.03652342 -0.031592708 0.031367224 0.008110424 0.004467598 0.0736603 0.0055173836 0.011442923
0.03973486 0.0551769 0.07268867 -0.069373466 0.0004912356 -0.053953834 0.085658774 0.036538497
0.03448302 -0.050990377 -0.021965388 -0.017416729 -0.06348719 0.016829068 0.08957991 0.086983815
-0.109198906 -0.16646805 -0.04288113 -0.019127214 -0.004003971 0.065685615 0.0077404385 -0.021493293
-0.0228149 -0.06245825 -0.18166593 -0.055981286 0.10504848 0.04619851 0.049808133 -0.01123197
-0.059539866 -0.075572565 0.11116313 -0.002275921 -0.011783025 0.048996612 0.015550581 0.006098185
-0.10272344 0.043011516 -0.06269072 -0.039811783 -0.0008967833 0.15101784 -0.056064393 0.013704876
0.015878648 -0.06679656 0.021836776 0.07543057 0.0103988405 -0.075718194 -0.07493075 0.035338692
0.049677987 0.09260872 0.097898595 0.024145445 0.010686926 0.093288966 0.081021994 0.0822587
0.0012436988 -0.04947419 -0.0062646447 0.062401433 0.016605416 0.09390901 -0.08324623 0.039903052
0.0055942982 -0.05822686 -0.064858064 -0.0066134017 -0.15786178 -0.050957505 0.024390271 -0.007186112

network_body._body_endoder.seq_layers.2.bias f4 [256]
00000000: 0bbc 9f3c 634b 413a 474a 123b 3451 4dbc
00000010: 4734 8cbb 22d2 903c da22 23bc 98b8 923c
00000020: 0959 7eb9 7a7c 4d3a ee90 493c a186 e73b
00000030: f34b 273c a08e 863c b639 cb3b afc7 8c3b
00000040: 407c 463c 8c5e 6bbb 9c55 99b9 00e7 4f3c
00000050: e0fb f63b 9321 493c 2588 eb3a 2b8e 40bc
00000060: d30d 383c afc0 073c ab58 6e3c 1f67 2a3b
00000070: 8dd6 843c 1649 71bb 403d 2bbc 20a6 20bc
00000080: 9b37 dd3a d8f4 1b3c 36df 443c 0b94 a03b
00000090: ada4 bd3c 950e e23b 4db0 68bb a6bc 103c
000000a0: 3f50 133d 92c2 243c 0d29 873b 1258 a23b
000000b0: b33e f93a 839d ccbb 5e6a 593c 98fe f23b
000000c0: d925 c03b 1b5d 83bb 217a ea3c 9ed6 a53a
000000d0: fbed 84ba f3ff 83bb b2b6 0d3c 38eb 053c
000000e0: ddf0 baba 5404 623c c8e4 1b3b f29a fd3b
000000f0: 229b dfbb 61f9 2c3c e164 edba f890 493c
00000100: b79c 2c3c 0f3e a639 5bf1 493c 307e 6fbc
00000110: 410e 5c3c 8b5a 34bc e0b6 9fbb 75d3 dc3b
00000120: e6d4 cb3b 6a35 52bc 655b 18bc 5775 063c
00000130: 03dc 7d3c a2ff cf3b e81c 22bc 2713 d13b
00000140: 301b 883b ec05 6f3b 0eb1 513c 31f8 133c
00000150: 2036 093c 5b0c 29bc af4c d33b dad3 603c
00000160: 17ec 3f3c 06ea 1abc 475d 0b3b d9c5 f53a
00000170: 5708 66bc 91d6 3bba 3b77 1d3c abf8 593c
00000180: 5948 213a 43b0 26bc 0532 793b 58e3 103c
00000190: 4e1e 013c 5024 c03b 07d3 9f3b 169b 16b8
000001a0: 1a62 f93a cc06 df3c bec6 6d3c d413 2c3c
000001b0: 671e 80bc 09dd f03a 93dc 363b fb2e 4b3c
000001c0: a100 2fbc 2a50 14bc 805c 8c3c 52a9 373c
000001d0: 8c58 b0bb f22e 673b 554d 97bb b527 b9bb
000001e0: f768 783b bd6e 8b39 ad73 913b 6982 dd3b
000001f0: 6895 2a3c df73 3e3a f3ef d83b 8b18 fd3b
00000200: 68b5 bf3b fb83 8fbb 4df4 be3c 542d 51bc
00000210: 4ff7 093c dabd a7bc 3d91 8cbb 0360 59bb
00000220: 7f4b 7cbb b29b 05bc 4009 993a 62ee 35bb
00000230: b483 573c 86eb aa3c 756e 923c 84a5 543b
00000240: cdea a8bb 65fb 50bc 2d0f a03c d47e b03b
00000250: ad08 8abb b6e2 9b3c 79dc f53c e455 a5bb
00000260: c618 423c 5cbb 7a3c af0d 88bb 16b6 013c
00000270: 13b0 0bbc 47da b1b9 b088 923b 66af e93a
00000280: 6e6d b73b 61f5 933c d605 aabb 5cb0 e4bb
00000290: d1c4 bf39 8412 6fbb f08b 10bc 01eb 2b3a
000002a0: d7fb c3bb 227a 7d3a 28d9 c1ba cb22 2a3b
000002b0: d32a 253c 0390 13bc 1e5e a0bb 1331 01bc
000002c0: c592 793a e16c 2c3c 55b0 afbb d912 11ba
000002d0: 432e bcbb 7bf0 3b3b 969d c53b bcb2 723c
000002e0: 15e3 6b3b b674 b83c 0291 eebb 6e9b 25bc
000002f0: 880f 1d3b 3767 363b 54e5 ba3b 78d8 af3c
00000300: e2a5 afbb 4d80 09bc 0404 06bc dcc9 3d3c
00000310: b2cd 343b a4a6 0b3c 3936 96bb fccd 50bb
00000320: 79d3 34bc fd07 1bbc 2729 053c 0a19 d9bb
00000330: d8f2 83bc 6ec7 a23a 961c 9cbb 2ae1 bf3c
00000340: eed6 393c 4bd7 13bc 8182 23bc 682a fc3b
00000350: 8dc1 dd3b 2873 7fbc 20d7 90bb 6ba0 273c
00000360: 7186 1fbc 81f4 ae3c 4af6 0e3c 9c73 333b
00000370: d078 c8ba 636b 05bc ba18 f0bb c071 253b
00000380: 8b37 ec3c eb63 2e3c 8f22 07bb 8bbf 133c
00000390: 7898 293c 459f 0dbb 82f9 abbb 6e2d 423c
000003a0: f56f afbb b39c a13b 73c1 873c c78e a93c
000003b0: b057 e6b8 f9e5 913c 81f2 2dbb ae3c 343c
000003c0: be54 933a 44eb a93c 2766 b33b 487c 683c
000003d0: 3433 ffbb 9497 60bb a96f 943c 14c6 7fbc
000003e0: 1e3b 673c aa0b f63b bddd 3b3d 730b 58bc
000003f0: bee8 343c d2d9 18b9 8e5f 9d3c 5952 783b
0.019498846 0.0007373599 0.0022322105 -0.012531567 -0.004278693 0.017678324 -0.00995704 0.017910287
-0.00024256496 0.0007838678 0.01230262 0.0070656096 0.010210979 0.01642543 0.006201948 0.004296265
0.012114584 -0.0035914509 -0.00029246218 0.012689352 0.00753735 0.012276071 0.0017969651 -0.0117526455
0.011233765 0.008285685 0.014547507 0.0026001406 0.016215587 -0.0036817244 -0.010451615 -0.009805232
0.0016877534 0.0095188245 0.012016108 0.0049004606 0.023149813 0.006898711 -0.0035505474 0.00883404
0.0359652 0.010056155 0.0041247667 0.0049543465 0.0019015878 -0.006244363 0.013269989 0.007415604
0.005863887 -0.004008902 0.028622689 0.0012652462 -0.0010141724 -0.0040283143 0.008649515 0.008173756
-0.0014262457 0.013794977 0.0023787487 0.007739418 -0.006823913 0.010557503 -0.0018111729 0.01230263
0.010535411 0.00031708225 0.01232561 -0.014617488 0.013431133 -0.011007915 -0.0048740953 0.006739075
0.006220448 -0.012830118 -0.009299134 0.008206687 0.015494349 0.0063476125 -0.009894587 0.006380457
0.0041536316 0.0036472036 0.012798561 0.009031341 0.008374721 -0.010317887 0.0064483504 0.013722384
0.011714003 -0.00945521 0.0021265314 0.001875098 -0.014040074 -0.0007165457 0.009610946 0.013303916
0.0006152443 -0.01017386 0.0038024199 0.0088432655 0.00788076 0.005863704 0.0048774513 -3.5907222e-05
0.0019026429 0.02722492 0.014512716 0.010502774 -0.015639497 0.001837642 0.0027902469 0.012401338
-0.010681302 -0.009052316 0.017133951 0.011209803 -0.0053816494 0.0035275784 -0.004617373 -0.0056504854
0.003790436 0.00026594652 0.0044388385 0.006759931 0.010411598 0.0007265191 0.006620401 0.007723873
0.0058504827 -0.004379747 0.023309851 -0.012767155 0.008420779 -0.02047627 -0.0042897747 -0.00331688
-0.0038497148 -0.008154796 0.001167573 -0.0027760495 0.013153959 0.02086426 0.017874936 0.0032447288
-0.0051549436 -0.01275525 0.019538486 0.005386213 -0.00421246 0.019029003 0.030012356 -0.0050456394
0.011846727 0.015303459 -0.004152022 0.007916948 -0.008525866 -0.000339227 0.004471861 0.0017828762
0.005597762 0.018061342 -0.005188684 -0.0069790315 0.00036576999 -0.0036479542 -0.008822426 0.00065581506
-0.0059809494 0.0009669383 -0.0014789449 0.002596068 0.010081011 -0.009006503 -0.004894032 -0.007885235
0.00095204666 0.010524006 -0.0053615966 -0.00055341196 -0.0057428195 0.0028677273 0.0060307486 0.014813121
0.0035993506 0.02251659 -0.00728047 -0.010107858 0.0023965556 0.0027832517 0.0057036076 0.021465525
-0.005360351 -0.008392406 -0.008179668 0.011583772 0.0027588424 0.008523617 -0.0045841006 -0.0031861058
-0.011036747 -0.009462354 0.008127487 -0.0066252993 -0.016107008 0.0012419054 -0.00476415 0.023422796
0.011342747 -0.009023498 -0.009979845 0.007695485 0.006767458 -0.01559142 -0.004420176 0.010231118
-0.009736643 0.021356823 0.008725712 0.002738214 -0.0015294794 -0.008143279 -0.0073271664 0.0025244802
0.028835079 0.0106439395 -0.0020619964 0.009017835 0.010351293 -0.0021609825 -0.0052482495 0.011851652
-0.0053539225 0.00493201 0.016571736 0.020697964 -0.00010983588 0.017809855 -0.0026542249 0.011000795
0.0011240465 0.020742066 0.005474824 0.014189787 -0.0077880863 -0.0034270035 0.01811965 -0.01561119
0.014113216 0.0075087147 0.045865763 -0.013186323 0.011041818 -0.00014576994 0.019210603 0.003789088

action_model._discrete_distribution.branches.0.weight f4 [2, 256]
00000000: 308e 463c 1c87 5cbc 1b6c e53b bfae 643c
00000010: da12 2dbb 5e97 24bc 008e c0bc 2118 e53c
00000020: 784d 2e3b 69a4 1abd c533 313c c7b6 af3c
00000030: 9a4f c53a e3c9 5e3c 9866 b53b 10e9 49bc
00000040: 4d9c 513a 6133 b5bc ca62 8dbc e59f 503b
00000050: 4fb0 babc 073d afbb bf0e aa3c f122 d8bc
00000060: 34d6 b8bc 973a 8dbc 2569 46bc 14cd 8cbc
00000070: 5889 233c 34f5 12bc 9540 e7bb 04b9 c13b
00000080: 90c4 333b c7f3 423c abdc 67bb 3154 98bb
00000090: b5de d6bc 428e c33c 7cd7 73bc e262 75bb
000000a0: cc8a 023d c5a7 283b a16e c2bb 5b09 e4ba
000000b0: 3619 bebc e889 9a3c de73 323c 7d0b 033d
000000c0: 17cf 823c 9bd4 91bc d7f2 d83c 8d7f c53a
000000d0: 8a48 933c 473a ed3a 2464 e6bb 103a fe3c
000000e0: 17f1 08bc c313 793b f1a8 94ba 76b0 923c
000000f0: 7fec 5ebb 7af4 93b9 7ddf 243b fc14 5b3c
00000100: 2679 2b3b ff1a 993c 2178 bbbc 3101 05bc
00000110: a69e adba c8c3 b03b 5199 30bc a14c 65bc
00000120: bb10 d9bc 9037 3cbc 1f82 27bc 4190 c33b
00000130: e0d1 ce3b f3e1 d0bb 7f20 87bc 3281 fd3b
00000140: 8d88 71bc 464f 9abc 7195 d93c 7b0b 56bb
00000150: e58c 933a bca5 013c 3645 6e3b d198 5b3c
00000160: 3f11 78bc 8e5c d5bc b62a dcbb 4c5f d83c
00000170: 376b 90bb 9372 debc f694 cfbb 971b e9bb
00000180: aee7 44bb f435 3a3a 5e41 02bd a7da 9e3c
00000190: dc15 1a3b e2be 68bc 741d 78bb 4d82 d53b
000001a0: 5a67 07bc 59d8 c43c 7c68 46bb 7d35 8e3c
000001b0: a4ab 073c d246 a23c ad02 89bc e172 9d3c
000001c0: 6430 dcbc 4ab4 d1ba fd66 a03c 340f 1d3c
000001d0: 978e 0fbd b2f6 443b 71d5 d63c f1e4 083c
000001e0: 2fdf cebb a1ed 043c ef0d 0ebc 0bb4 2e3c
000001f0: c999 a2bc 113a b4bc 1ecd a53c 6878 64b9
00000200: 970d 053c 923d 493b 0732 a5bc ef54 0fbb
00000210: f9df 273c 627e 17bd e03a f2bc 1e17 8fbb
00000220: 3131 84bc 153b 343c 4642 0c3c ac3a 493c
00000230: bfa3 55bc 6602 953c b28b 6b3c f95a b33b
00000240: 70da 0cbc a0e2 e1ba ec52 b73c 8b7f 283b
00000250: 7a17 70bb fbe9 00bd 666a d0ba 409c 97bb
00000260: a040 123c ee96 fa3b af42 ecbc d363 5ebb
00000270: 741d 99bc 8bc6 a43c 2c13 dc3c da92 713c
00000280: 9f7d a4bb 0287 af3c e124 b2bb d153 3ebc
00000290: 8fe2 e8bb 4b87 8dba b543 193c 3d18 e8bc
000002a0: 292d 38bc 32eb 2f3c 780a 4a39 3471 3d3c
000002b0: b777 28bc b624 e23a 4b51 673c b981 ea3b
000002c0: 3ca5 c63b 80ad b63c 7d4c 843c bff6 d53b
000002d0: bd56 fabb 679d a4bb 3d4f 8aba 7ff0 e13a
000002e0: 175e 83bb be33 d73c 7dc7 35bc 6754 13bc
000002f0: 2d85 c8bb a1b0 243c c8ca 7b3c 2015 2dbd
00000300: 8657 863b fe19 33bc 21a9 a6ba 1f58 bd3c
00000310: 3ac5 b2bc 242d 0dbd 6edb 9a3c 46eb acbb
00000320: 4aed 72bc 4069 143c 5ae6 613c 725a b83b
00000330: 56fc b9bc 6829 3abb 29cd 9a3b 43e0 843c
00000340: 1cfc fc3a a040 22bb ea2f f43b ed8e 87bc
00000350: 14e5 9a3c 8c4b b3bb a8da 17bc 2e1b bf3b
00000360: d6d4 d93b fad0 e3bc 302e b83c 1a9b e53a
00000370: 2a6f 2e3c 2ef8 8a3c c22d cfbb 006b e13c
00000380: 5e2e 87bc ce4c c5bb 874c 8bbc aa47 743c
00000390: 0b7b 14bc 6507 293c 0005 383b 9e2d 08bc
000003a0: 56f0 9d3a 6bfb acbb 1d56 4fbc ec72 c13c
000003b0: fcc1 2abc b2d2 973b c9a6 993c bf09 f139
000003c0: b6d8 84bc 785a 7a3c 4030 233c 62e5 d03a
000003d0: b38f 2c3c 7105 03bb f1bd db3b 31e8 01b9
000003e0: a7a8 063d 4502 5e3c 5539 c33c f6ce eabb
000003f0: 18f9 babc 6e67 1b3c 6eb0 a03b f7bf 30bb
0.012118861 -0.013459947 0.0070014126 0.013957678 -0.0026408941 -0.010045854 -0.02350521 0.027965607
0.0026596468 -0.03775445 0.0108155655 0.02144946 0.001505363 0.013597938 0.005535912 -0.012323633
0.0007996008 -0.022119226 -0.01725902 0.0031833586 -0.022789149 -0.005347851 0.020758985 -0.026383849
-0.022563078 -0.017239852 -0.012110029 -0.017187633 0.009981476 -0.008969594 -0.0070572593 0.005911948
0.0027430393 0.011898941 -0.003537933 -0.0046487083 -0.026229242 0.023871545 -0.014882918 -0.0037442972
0.03187065 0.0025734764 -0.005933598 -0.0017397808 -0.02320538 0.018864587 0.010891883 0.031993378
0.015967889 -0.017801574 0.026482983 0.001506792 0.017978925 0.0018099033 -0.0070309807 0.031033546
-0.008358262 0.0038006164 -0.0011341852 0.017906409 -0.0034015474 -0.00028220174 0.0025157623 0.013371702
0.002616474 0.01868963 -0.02288443 -0.00811796 -0.0013246133 0.0053944327 -0.010778741 -0.013995321
-0.026497236 -0.0114878565 -0.010223894 0.005968124 0.00631164 -0.0063745915 -0.016494988 0.0077363485
-0.014742029 -0.018836629 0.026560517 -0.0032660651 0.00112572 0.007913049 0.003635717 0.0134031335
-0.015140831 -0.02604511 -0.0067189587 0.026412629 -0.0044073123 -0.027154243 -0.006334896 -0.0071138847
-0.0030045318 0.00071033766 -0.03180062 0.019391371 0.0023511564 -0.014205666 -0.0037859352 0.006515777
-0.008264387 0.024028944 -0.003027468 0.01735949 0.008280668 0.01980916 -0.016724909 0.019219818
-0.026878543 -0.0015999165 0.019580359 0.009586144 -0.035048094 0.0030054268 0.026224824 0.008355365
-0.0063132267 0.008113296 -0.008670314 0.010663043 -0.019848721 -0.022000344 0.020239409 -0.00021788629
0.008120916 0.0030706865 -0.020165456 -0.0021870693 0.01024627 -0.036985762 -0.02956909 -0.0043667695
-0.016136738 0.011000414 0.008560723 0.012282055 -0.013039528 0.01818962 0.014376568 0.0054734913
-0.008597001 -0.0017233677 0.022378407 0.0025710787 -0.0036635087 -0.03147314 -0.001590085 -0.0046267807
0.008926541 0.0076473868 -0.028840391 -0.0033934012 -0.018690802 0.020114204 0.02686461 0.014744485
-0.005019858 0.021426681 -0.005436525 -0.011616663 -0.007107086 -0.0010797767 0.0093545215 -0.02833187
-0.011241236 0.010737227 0.00019268121 0.011562634 -0.0102824485 0.0017253372 0.014118503 0.0071565774
0.006062178 0.022299528 0.016149754 0.0065296586 -0.0076397345 -0.0050236466 -0.0010552179 0.0017237811
-0.004009019 0.02626979 -0.011094925 -0.008992291 -0.0061193914 0.010051877 0.015368171 -0.042256474
0.004099789 -0.01093149 -0.0012715199 0.023113308 -0.02182256 -0.034466878 0.01890346 -0.00527707
-0.014827082 0.009058297 0.01378783 0.0056260163 -0.022703331 -0.0028406028 0.004724164 0.016220218
0.0019301209 -0.0024757758 0.007452001 -0.016547645 0.018908061 -0.0054716524 -0.00926844 0.0058320975
0.0066476865 -0.027809609 0.022482961 0.0017517537 0.010646621 0.016964044 -0.0063225934 0.027516842
-0.016501602 -0.0060211187 -0.017004265 0.014909664 -0.009062539 0.010316704 0.0028079152 -0.008311657
0.0012049775 -0.005278995 -0.012654808 0.02361437 -0.010422226 0.004633271 0.018756287 0.00045974363
-0.016216617 0.0152803585 0.009960234 0.0015937502 0.010532307 -0.0019992257 0.0067059924 -0.00012388897
0.032875683 0.013550346 0.023831049 -0.007165785 -0.022823855 0.009485109 0.0049038446 -0.0026969889

action_model._discrete_distribution.branches.0.bias f4 [2]
00000000: b6de b33b b8de b3bb
0.0054891957 -0.0054891966

action_model._discrete_distribution.branches.1.weight f4 [3, 256]
00000000: 88a4 87bc e980 fb3c 8003 fe3c 42b4 623c
00000010: d070 393c 3c9e c9bc fef1 1f3c 73ea 9fbc
00000020: 63f6 cfbc 44aa 9b3c 1ec5 023d 0f73 97bb
00000030: ba34 a83c 37bd febc 166c f739 9a51 25bc
00000040: 32ac 02bd 3292 35bc a79f 783c 782a ef3c
00000050: 2f7d 3e3c 9077 11bd 30f8 2a3c 9c2c 223c
00000060: 54ac 383c 9814 bfbc f05a b73c 3820 0d3c
00000070: db32 0f3c 1969 17bd 525c 593b bf5e 60bc
00000080: c18a c13c 9fa4 babc bb97 663b 209d ef3b
00000090: 06fb 0fbd f6fd 0c3a 95da c0bc 3dfd a93c
000000a0: 5aa8 13bd e88e edbc 269a d53c caad 06bc
000000b0: f8a6 2ebd c4fe 69bc 1aae 733b 6f1c 2d3c
000000c0: 03d7 9abc 3db2 873b f21f 03bd 9a5f 373d
000000d0: f98d 3abc 2f5e 1b3c 301d fa3b ab04 8cbc
000000e0: fac0 f13b 04bf 80bc 70eb 463b 7f18 46bc
000000f0: b029 443c 75e0 9ebc f5d5 a1ba 7d03 d63b
00000100: 029b e4bc 8411 283c 79f2 89bc a61a 423d
00000110: 730e 713d c3c1 cd3c 11cc 863c a022 27bb
00000120: d488 0fbd e56f 0e3d 67ff 933c ed74 d5bc
00000130: 8df4 35bc d534 bdbb 4c1b 1abb 0efa a4bc
00000140: 47f0 b0bc 6297 c53c 5380 c7bc 93c6 65bc
00000150: 81a8 3c3c 4444 863c 2dd4 a1bc 9508 9a3b
00000160: f399 66bd b451 2239 b6d1 8738 f814 b1bc
00000170: 2f41 a83c 2cd9 0c3d df57 733c 6430 9ebc
00000180: ed26 4d3c 1d8c b8ba 2d29 a43b 0d81 efbc
00000190: a786 893a 4dd7 9bbc 1672 44bc 51bf 8abc
000001a0: 71ac 59bc 61f4 7dbd a235 3dbd 9e1b a1ba
000001b0: d0e9 683c f9db ab3c 1228 a5bc 1676 d3bc
000001c0: 8d39 3f3c 8e1e a73a 20f1 cf3c 6f42 4d3d
000001d0: 3f00 4f3c 00b6 7cbc f6b2 883c ea13 4d3c
000001e0: ec10 f3bb 2fbb b43c 077d 1f3d cd30 4abc
000001f0: 97fa 06b9 3133 b53c 3cb6 cabb ef74 e5bc
00000200: 717d a63c 4bb6 f03a 08ca 2abd 59a8 553c
00000210: 4be3 a03c eb5e 573c fa0c 3a3c a79f 683a
00000220: 5298 08bc d70f 92bb 53c3 31bc 8a36 96bc
00000230: 7a85 8bbc f4c9 0fbd ed42 f73c 31f9 7dbc
00000240: ff27 c03b f9bf d9ba b48e 203c 197b 29bb
00000250: 9ec5 113d c4e6 2fbd a1aa 38bd 2d40 fe3c
00000260: 532d d1bc 679c 2d3d 1cd5 99bb bf90 b0bb
00000270: ad61 9dbc dc15 193d a3dd 59bc 4387 e2bb
00000280: 6f9a a6bc fed8 9eb8 9089 0a3b 8e5d 253c
00000290: 88be 973a e0fe 073d 6cb3 cf3c aee9 2d3c
000002a0: 35b5 163d 6e2a a1bc b3fc 823c 32c8 c33b
000002b0: d709 80bc d373 2ebc 5f5b 3e3d 37a4 b4bc
000002c0: 6f8e d73c 267c 9bbc 3eb2 043c 2268 d03c
000002d0: 49e8 393c 26d5 10bd 7af1 00bd 1000 443d
000002e0: 52c6 6d3c aa87 a339 fe7d 4c3c 6a6e bbbb
000002f0: 2761 eb3c 6017 dbbc ea36 3b3c 3ab2 d0bc
00000300: 328f 823c a0e0 063d 89ad 3ebc 7211 57bc
00000310: 2d91 3a3c 4cca d93b f5ac 97bc 5ea0 04bd
00000320: 674d 2b3d 06d1 7bba b5f9 1bbb 0117 1a3c
00000330: 1a91 823c 0c8d fa3b 8ac2 86ba 3f25 5db8
00000340: 008c 35bd e7a2 e6bb c344 a9bb 4097 96bc
00000350: 9301 d13c f4a8 913b eb9a a13c ffdb b0bc
00000360: 6b9d 083d afef 573c 4798 32bc a70b 253b
00000370: 3f5c 153c ec58 ac3c 329c 01bc d3f9 a7bc
00000380: 900f 50bd 5afe e6bc 3641 9cbb de33 e6bb
00000390: b87b 2fbb 22f4 85bb c927 d43b de52 c73c
000003a0: 1600 923c 18ad 543d fb62 e23c f5cf 11bd
000003b0: a235 913c 274a 7ebd 7ec4 09bc 5790 af3c
000003c0: f022 193b 08b7 e0bc ffe6 a23b 7581 b33c
000003d0: 3da8 753c 4cb9 b2bc c5e6 bb3c 60dc 883c
000003e0: 093e 3bbc 4c43 303c 3862 acbd d0a6 853c
000003f0: 799d 2ebc 7b2b 363c 0233 20bd 8e28 953c
-0.016557947 0.030701118 0.031007528 0.013836922 0.0113184005 -0.024611585 0.009762285 -0.019520974
-0.025386041 0.019002087 0.031926267 -0.0046218704 0.020532954 -0.031096084 0.00047192042 -0.010090256
-0.0319025 -0.011082219 0.015174783 0.029195055 0.011626526 -0.035514414 0.010435149 0.009898331
0.011271555 -0.02332525 0.02238223 0.008613639 0.008740152 -0.036965463 0.00331666 -0.013694464
0.023625733 -0.022783576 0.0035185653 0.007312432 -0.035151504 0.00053784193 -0.023541728 0.020750636
-0.036049224 -0.028998807 0.02607448 -0.0082201455 -0.042639703 -0.014281932 0.003718263 0.010565861
-0.018901354 0.0041411207 -0.032012887 0.044768907 -0.011386388 0.009482904 0.007632874 -0.01709207
0.007377741 -0.015716083 0.0030352734 -0.012090801 0.01197283 -0.019394139 -0.0012347089 0.0065311776
-0.027905945 0.010258082 -0.016839253 0.047388695 0.05885167 0.025116807 0.016454728 -0.0025502816
-0.0350426 0.03477468 0.018066121 -0.026056731 -0.011105669 -0.0057741203 -0.0023514805 -0.020138767
-0.021598948 0.024120037 -0.024353182 -0.014024395 0.011514784 0.016389973 -0.019754494 0.00470073
-0.05629916 0.0001547996 6.476363e-05 -0.021616444 0.020538894 0.0343868 0.014852493 -0.019310184
0.012521488 -0.0014079843 0.0050097913 -0.02923634 0.00104924 -0.019023562 -0.011990091 -0.01693693
-0.013285742 -0.062000636 -0.046193726 -0.0012291556 0.0142159015 0.020978915 -0.020160709 -0.025813144
0.011671436 0.0012750195 0.025383532 0.050112184 0.012634336 -0.015424252 0.016686898 0.012516955
-0.0074177887 0.022061912 0.038937595 -0.012340737 -0.00012872588 0.022119137 -0.006186275 -0.02800986
0.020323487 0.0018364874 -0.04169658 0.0130406255 0.019639632 0.013145189 0.011355633 0.0008873888
-0.008337097 -0.0044574547 -0.010849792 -0.018336553 -0.01703142 -0.035104707 0.03018328 -0.015501306
0.005864143 -0.0016612998 0.009799648 -0.0025860725 0.035588853 -0.042944685 -0.0450846 0.03103646
-0.025534308 0.042385485 -0.004694594 -0.005388349 -0.019211615 0.037374362 -0.013297471 -0.006913097
-0.020337312 -7.574445e-05 0.0021139123 0.010093106 0.0011577168 0.033202052 0.02535411 0.010614796
0.036793906 -0.019673552 0.015989637 0.005974793 -0.015629692 -0.010647732 0.046473857 -0.02205096
0.026313035 -0.018980097 0.008099137 0.02544028 0.011346885 -0.035359524 -0.03148029 0.047851622
0.014512615 0.0003119086 0.012481211 -0.0057199495 0.02873285 -0.026744545 0.011426667 -0.02547561
0.015937421 0.032929063 -0.011638054 -0.013126718 0.011387152 0.00664643 -0.01851509 -0.0323795
0.041821864 -0.0009606037 -0.002379996 0.009404899 0.01593833 0.0076462086 -0.0010281366 -5.2725194e-05
-0.044322968 -0.0070384624 -0.0051656677 -0.018382668 0.025513446 0.0044451896 0.019727191 -0.021589277
0.03335325 0.013179704 -0.010900564 0.0025183947 0.009116231 0.021038495 -0.007910775 -0.020504868
-0.05079609 -0.028197456 -0.004768516 -0.007025226 -0.0026776623 -0.004087941 0.0064744693 0.024331506
0.017822307 0.051922888 0.027635088 -0.035598714 0.01772577 -0.062082436 -0.008408664 0.021431131
0.0023366772 -0.027431026 0.0049713845 0.021912316 0.014993724 -0.021816872 0.022937188 0.016706645
-0.011428365 0.010758232 -0.08417171 0.016314894 -0.010657662 0.011118765 -0.039111145 0.018207815

action_model._discrete_distribution.branches.1.bias f4 [3]
00000000: 3c20 2dbc 7c76 213c 7795 933a
-0.010566767 0.009854909 0.0011259754

action_model._discrete_distribution.branches.2.weight f4 [2, 256]
00000000: 2c45 00bd 8cff 9cbb 04ec ff3b ade3 94bb
00000010: 3aad 383c 3a21 14bb f358 35bc cfbb 55bc
00000020: ba80 7b3c 53b7 fbbc 19f6 b7bc f1cd 92bc
00000030: 7efb 2dbd d6b6 503c 9f14 943c bcef 713b
00000040: e228 f4bc fd13 9abb 8365 35bd c63b 3dbd
00000050: 878e 23bd d632 b4bc fb94 843a 1a77 6db9
00000060: d7c0 11bd 0951 b9bc 3cbe 0bbd b4a8 7bbb
00000070: 9f8c 63bc 66e2 7ebc 2293 a2bb bbaa 83bb
00000080: 0937 28bc 70e4 5b3c 493d efbc 3ace 17bd
00000090: 2133 893c 2580 893b f690 733c 28de 6fbc
000000a0: fa2a 063d b3e5 bd39 92aa 0ebc 9a41 cfbb
000000b0: 2dba 88bc faeb 063d 4f32 a8bc e5cc 46bc
000000c0: 6d02 b4bc f976 8e3c 4c16 ad3c fc94 d5bc
000000d0: 5e9b f53c 11d3 73bc 9ec3 b73b f9ed fa3c
000000e0: 7992 b2bc 4c2a b53c 5d06 d1bc 66cd f8ba
000000f0: 3e31 17bc a5b6 11bc 74b5 9abc 9fab 13bc
00000100: d38f d4bb d9f2 69bb 34ef 83bc 63c1 883c
00000110: 64a8 9b3c ea21 d1bb c082 21bd 20f3 40bc
00000120: ef69 4cbc 72d9 8b3c a0b2 113c 22d7 0c3b
00000130: 6e7a 42bc 618f 21bc a1d3 c4bb e2bd ff3c
00000140: 4cbe 09bd 7e2b 50bb c6d2 e63c ce34 ffbc
00000150: 0b9e 13bc 35a0 c2ba ff11 ccbb 2c41 43bc
00000160: 0e66 8d3a 76df d4bb ab82 d8bc e355 b73b
00000170: a01d 0ebd ff49 50bc 50d5 07bd 1670 e1bc
00000180: 546c 7239 c838 053c bba0 31bb 18be 00b7
00000190: 9814 0fbc 27de 3ebc c833 093d 3168 afbb
000001a0: a951 873a 86b7 dfba 3789 cc3c de3f ff3b
000001b0: 887b 7ebc 723e 8bbb 6308 1b3c 306f d73c
000001c0: e011 36bc 2d7b c93b 44e1 373d b176 19bd
000001d0: dbc4 1bbc 71ab ca3a 2334 fdba 852e 91bc
000001e0: aa23 8dbc 7c84 8e3c b4f2 b1bc 3576 9b3c
000001f0: 2ac1 0cbc 1ccc 6cbc 822a dcbb 2ef2 093d
00000200: 8ddb c2bc b4fa 25bc 7ba8 ae3c d1bb c93b
00000210: bbfc a03b 1101 fbba 5fd4 3abc 510d bbbc
00000220: 3339 6aba 3ca3 2e3c 32fc 0c3d fa45 a4ba
00000230: 5918 2fbd 85c3 e23c 53bb 93ba bd3d 173d
00000240: 2b39 e5bc 10c8 6f3c 8268 8c3c 17d9 abbc
00000250: 9076 9cbc 4186 9fbc 9ffb 013d decf 37bc
00000260: a965 89bc 6448 36bc cc90 a5bc f556 2c3c
00000270: d290 42bc 3880 5bbc 9201 eb3b 0d19 97bc
00000280: 2ca9 34bc b270 c43c f823 acba bc3f 61bc
00000290: 11ff a1bb 775d 843b 64e7 51ba e69c b83c
000002a0: b22b 37bc fcdc 203a fb5a b3bc a2db 023c
000002b0: 22f0 1ebd fcc8 ccbb 7fd8 7f3c 943a 7bbc
000002c0: 21a9 edbc 5138 153c 0641 eb39 6496 eabc
000002d0: 1109 a2bb 41d4 92bb 3e2b 42b9 5b29 a73c
000002e0: dd40 2abd b265 61bc d6ef a0bc 52aa 22bc
000002f0: 39db 02bd da50 89bc 126b 00bd 31cf d6bc
00000300: b319 b6bc a36a a13b 1206 a23a 2e19 ddbc
00000310: dab0 bbbc 2dcf dfbc 03f5 213c 443e a5bc
00000320: a28f 043c c58a 403b 82d3 74bc e1dd 33bc
00000330: b0e2 61bb 5f3a 91bc 8283 f5bb 9511 b83b
00000340: 90ce 5d3b f65c 6a3c bad8 9dbc 1452 053d
00000350: 54e0 21bc 53d9 8cbb 6833 a9bc 8a83 67bc
00000360: b86a 71bb 7db0 58bd 8236 e1bb aebf 4bbc
00000370: 2708 0f3d 6a4a afbc e899 8dbc 22ec 873b
00000380: eb54 6fbc 0b30 1dbb 6603 ecbb f90e 733c
00000390: 13a0 02bc be51 23bb 1df0 9a3a 9d4f 0fbd
000003a0: 7df8 573b e44e a8bb 8b48 8fbc f6d5 123c
000003b0: 4e8d 21bb 814f 163b 00ae bd3c 6e47 e1bc
000003c0: 55c8 51bc e728 b2bc e401 02bd 0150 333c
000003d0: 7599 0c3c 6863 84bb e04f 0dbd dc82 1d3c
000003e0: b03a ca3c dc57 c43c 285d f53c d084 00bc
000003f0: 7065 21bd ba94 18bc 283f 273d bdda 1cbc
-0.031315967 -0.0047912057 0.0078101177 -0.0045437426 0.011271769 -0.0022602812 -0.01106857 -0.013045265
0.015350515 -0.030727064 -0.022456216 -0.017920466 -0.04247617 0.012738904 0.01807624 0.0036916574
-0.02980465 -0.00470209 -0.044286262 -0.046199583 -0.039930847 -0.021996897 0.00101152 -0.0002264645
-0.035584297 -0.022621648 -0.03411697 -0.0038400115 -0.013888507 -0.015556907 -0.0049613873 -0.0040181554
-0.010267028 0.013421163 -0.029204028 -0.037061907 0.016748013 0.004196184 0.014866104 -0.0146403685
0.03275583 0.00036220028 -0.008707659 -0.006324959 -0.016690338 0.03293989 -0.020531802 -0.012133812
-0.021973813 0.017390715 0.021128796 -0.026072018 0.029981311 -0.014881865 0.005608036 0.030631052
-0.02179836 0.022114895 -0.02551573 -0.0018982112 -0.009228049 -0.0088936435 -0.018885352 -0.009013086
-0.0064868717 -0.0035697727 -0.016105272 0.016693776 0.019001193 -0.0063822167 -0.039431334 -0.0117767155
-0.012476428 0.01707146 0.008892685 0.0021490534 -0.01187001 -0.009860844 -0.0060066734 0.031218473
-0.033628747 -0.0031764205 0.028176676 -0.031153109 -0.009009848 -0.0014848771 -0.0062277312 -0.011917394
0.0010787861 -0.006496365 -0.026429495 0.0055949553 -0.03469622 -0.012712955 -0.033162415 -0.027519267
0.00023119274 0.0081312135 -0.002710386 -7.673654e-06 -0.008732937 -0.011649645 0.033496648 -0.0053529968
0.0010324019 -0.0017068244 0.024967773 0.007789596 -0.015532382 -0.0042493874 0.009462449 0.026298136
-0.01111266 0.006148717 0.044892564 -0.03746671 -0.009507383 0.001546247 -0.0019317906 -0.017722378
-0.01722892 0.017397158 -0.021722175 0.018977264 -0.008590976 -0.01445296 -0.0067189345 0.033678226
-0.02378633 -0.010130573 0.021320572 0.0061564227 0.0049129403 -0.0019150098 -0.011403172 -0.022833498
-0.0008934915 0.010659035 0.0344202 -0.0012533062 -0.04274783 0.027681122 -0.0011271037 0.036924113
-0.027981361 0.014635101 0.017139677 -0.02097754 -0.019099504 -0.019473197 0.031734105 -0.011218993
-0.016772108 -0.011125658 -0.020210646 0.010518779 -0.011875348 -0.013397269 0.007171818 -0.018444562
-0.011026662 0.023979519 -0.0013133278 -0.013748106 -0.0049437364 0.004039462 -0.0008007197 0.022535753
-0.011179851 0.0006136445 -0.021893969 0.007986935 -0.038803227 -0.006249545 0.015615582 -0.01533379
-0.029011311 0.009107665 0.0004487114 -0.028636165 -0.0049449285 -0.004480869 -0.0001851739 0.020405462
-0.041565765 -0.013757156 -0.019645613 -0.009928303 -0.03194735 -0.016762186 -0.03135211 -0.026221843
-0.022229051 0.004926042 0.0012361428 -0.026989546 -0.022911478 -0.027320469 0.0098850755 -0.020171292
0.008090885 0.0029379588 -0.0149430055 -0.010978193 -0.0034467392 -0.017728029 -0.0074924836 0.0056173303
0.0033845045 0.01430439 -0.019268382 0.03254898 -0.009880144 -0.004298368 -0.020654395 -0.014130482
-0.003683729 -0.052902687 -0.006872953 -0.012435837 0.034919884 -0.021397788 -0.017285302 0.0041480223
-0.014607648 -0.0023984935 -0.0072025536 0.014835113 -0.007972735 -0.0024920548 0.0011820827 -0.034988035
0.0032954507 -0.0051363576 -0.017490646 0.008962145 -0.0024650875 0.0022935572 0.023154259 -0.02749988
-0.012804111 -0.02174802 -0.031740084 0.010944367 0.008581509 -0.0040401705 -0.034500003 0.009613719
0.024686188 0.023967676 0.029951647 -0.007844165 -0.03940338 -0.009312803 0.040831715 -0.009573636

action_model._discrete_distribution.branches.2.bias f4 [2]
00000000: 3fcd 72bb 44cd 723b
-0.0037048606 0.0037048617

onnx::Div_94 f4 [84]
00000000: b6f9 d83e 8ae0 a03a 57c2 f13e 0107 b03e
00000010: 562a dc3e 8ae0 a03a a25a eb3e 9b10 a13e
00000020: 79ed d93e 8ae0 a03a 58ca e83e 669d 9c3e
00000030: 018e e03e 8ae0 a03a 8185 e53e 24db 923e
00000040: b012 d83e 8ae0 a03a 4599 dd3e 0702 893e
00000050: 359b e33e 8ae0 a03a 27f2 e53e e257 923e
00000060: 1441 d53e 8ae0 a03a d520 d83e 3b03 833e
00000070: 11e9 e43e 8ae0 a03a a047 e63e d5cd 923e
00000080: e8e4 d43e 8ae0 a03a 0587 d63e 5d94 813e
00000090: 90a5 e33e 8ae0 a03a 6484 e43e 2c10 923e
000000a0: 610f d73e 8ae0 a03a 070f d83e 17e3 823e
000000b0: e7da e13e 8ae0 a03a 4d69 e23e 73ca 903e
000000c0: aa07 db3e 8ae0 a03a 2b9e db3e 925c 863e
000000d0: 7ec4 e03e 8ae0 a03a a223 e13e 4aea 8f3e
000000e0: 27ef e03e 8ae0 a03a e742 e13e 3e41 8b3e
000000f0: 9337 e03e 8ae0 a03a 6477 e03e 0139 8f3e
00000100: 6799 e53e 8ae0 a03a ddca e53e 5379 8f3e
00000110: 987c e03e 8ae0 a03a 47a3 e03e 1981 8f3e
00000120: b069 e83e 8ae0 a03a 8e89 e83e 679c 923e
00000130: ee21 e23e 8ae0 a03a 4f37 e23e dbee 8f3e
00000140: 39c7 ea3e 8ae0 a03a adda ea3e 80aa 943e
0.42378014 0.0012273949 0.47218582 0.34380344 0.4300105 0.0012273949 0.45967585 0.3145798
0.4256399 0.0012273949 0.45466876 0.30588835 0.4385834 0.0012273949 0.44828418 0.28682816
0.42201757 0.0012273949 0.43280998 0.2675936 0.4445435 0.0012273949 0.4491131 0.28582674
0.41651213 0.0012273949 0.4221255 0.25588402 0.44709066 0.0012273949 0.4497652 0.28672662
0.41580892 0.0012273949 0.41899887 0.25308505 0.44462252 0.0012273949 0.44632256 0.28527963
0.4200392 0.0012273949 0.42198965 0.2556388 0.44112322 0.0012273949 0.44220963 0.28279456
0.42779285 0.0012273949 0.4289411 0.262425 0.43899912 0.0012273949 0.43972498 0.28108436
0.4393246 0.0012273949 0.43996355 0.27198213 0.437924 0.0012273949 0.43841088 0.27973178
0.448436 0.0012273949 0.44881335 0.2802225 0.43845057 0.0012273949 0.4387457 0.2802818
0.45393133 0.0012273949 0.45417446 0.2863495 0.4416651 0.0012273949 0.44182822 0.2811192
0.4585512 0.0012273949 0.4586996 0.2903633

onnx::Div_97 f4 [5]
00000000: 31e5 cd40 e815 b340 7c28 2d3f ec8f 173f
00000010: 90b6 163f
6.4342275 5.596424 0.676399 0.5920398 0.5887232
